Model.pkl (torch, 73640 bytes, 8 tensors)

mlp_layer.0.weight f4 [128, 4]
0.5819547 0.70793396 0.8777025 0.52097607 0.55701715 0.81243724 -0.3850787 0.5654856
0.3297754 0.80767095 -0.48691532 -0.23794562 -0.23305273 -0.025666323 1.0198567 0.13148597
-0.0013072841 0.14161481 0.70641106 -1.3274935 0.3271523 0.5996685 -0.95776516 -0.3651994
-0.20116925 0.31998518 0.19700593 -0.14579496 -0.30603048 0.29434514 1.0045803 2.5916584
-0.063821144 0.004492937 -1.1047261 0.30818796 -0.2727903 0.012683194 1.5042584 -0.19062552
-0.1581656 0.03688509 -1.4312217 -0.64285713 0.22177288 0.37597957 -0.5712638 -0.4133336
-0.012657762 0.25790218 0.1913005 0.72450083 -0.06670594 0.44901788 0.2726807 -0.38821828
-0.17710899 0.42814985 1.4147947 0.5410442 -0.45808622 0.1798028 0.6305113 -0.34187025
-0.5013562 0.043627266 0.46593392 -1.3374813 0.06394007 0.048038434 1.401388 -0.32793543
0.23157294 1.2092087 0.34185433 0.12659486 0.0020006995 -0.006878241 0.7745761 0.9818435
-0.13386597 -0.1075989 0.58227384 1.3177847 -0.1294812 -0.012250037 0.38012847 -1.1280115
0.43190798 0.45000103 -0.00042035285 -0.2381955 0.10584801 0.46063057 -1.0270174 -0.58744276
0.40766266 0.66605514 0.07452913 -0.46684453 0.25222751 0.43720755 1.5031362 2.1884928
0.28813273 0.6117332 0.42189118 0.011665898 -0.05543293 0.037289605 0.37253356 2.7733207
-0.30199954 0.17061129 1.1731195 -1.444579 0.17713833 0.06513443 0.06697063 1.6412678
-0.0065519395 0.08537637 1.5134231 2.9158757 -0.30696672 -0.30068046 0.29981992 -1.7454051
-0.0720005 0.47942168 0.18994224 -0.29406542 -0.70377666 -0.53341985 -1.0758134 0.51530695
-0.17735429 -0.33649218 -0.37028494 -2.1784794 0.37668645 0.43094283 0.09638771 1.1106993
-0.0140161235 -0.121011734 0.6249812 -1.2555089 0.4167458 0.8967403 0.059448022 -0.30079058
0.040578227 0.010475589 0.7645051 2.2094502 -0.1839398 0.11926847 0.98245525 0.7739143
0.106617145 0.53291106 -0.12619591 0.3846138 0.23210594 0.70150423 -0.59842265 -0.6142363
-0.1208389 0.01595759 -1.3973172 0.99206656 -0.5270183 0.18570755 1.0856965 -0.11511467
0.10416403 0.33536595 1.0492685 -1.2892843 -0.064130306 -0.24732208 -0.24361475 0.70041263
-0.23513341 -0.024548246 0.25034124 0.03650916 0.63502795 3.634579 -0.037862755 0.27476552
-0.0011398712 0.08616895 1.4734887 -0.057042703 -0.4132771 0.25263005 0.18678272 -0.13010001
0.36500347 0.672935 0.3170437 1.6094372 -0.33070803 -0.25230086 -0.38131946 0.34188703
-0.62026495 -0.31605297 -1.027228 -1.4679837 0.33599395 0.34163475 -0.93301976 0.25382665
0.3516776 0.55269027 -0.7111314 1.5739797 0.04304204 0.016721372 0.6003878 0.31886926
-0.7417615 -0.32976997 -0.20277531 0.3423688 0.059739225 0.0806134 0.9117513 1.1001934
-0.50567245 -0.5216679 -0.94613093 0.26964265 -0.12971048 0.33340633 0.6867316 -0.31225955
0.23658828 0.64445025 -1.2400255 -0.15214762 -0.5230117 -0.40921387 -1.4343816 0.02878455
0.031260062 -0.08567547 -0.09555026 1.9154782 -1.0331446 -0.4300601 -0.8867626 -0.48255473
00000000: fcfa 143f 293b 353f 1cb1 603f b05e 053f
00000010: ad98 0e3f e3fb 4f3f 0929 c5be aac3 103f
00000020: 52d8 a83e 86c3 4e3f f74c f9be 04a8 73be
00000030: 60a5 6ebe 2e42 d2bc aa8a 823f 42a4 063e
00000040: 2d59 abba 7903 113e 5bd7 343f 4feb a9bf
00000050: 8280 a73e e083 193f 1930 75bf 6afb babe
00000060: 50ff 4dbe 19d5 a33e ecbb 493e 464b 15be
00000070: 07b0 9cbe 68b4 963e 1696 803f bbdd 2540
00000080: a9b4 82bd 7d39 933b aa67 8dbf d0ca 9d3e
00000090: 2cab 8bbe 2ccd 4f3c 8a8b c03f 5633 43be
000000a0: 2af6 21be d214 173d 4632 b7bf 4992 24bf
000000b0: 6e18 633e 6580 c03e 583e 12bf 76a0 d3be
000000c0: 8062 4fbc c10b 843e 47e4 433e e378 393f
000000d0: 209d 88bd ace5 e53e ce9c 8b3e 8cc4 c6be
000000e0: 0f5c 35be 7536 db3e fe17 b53f df81 0a3f
000000f0: 478a eabe 3a1e 383e 3069 213f 9e09 afbe
00000100: e158 00bf 81b2 323d e48e ee3e 9632 abbf
00000110: 03f3 823d f3c3 443d af60 b33f 27e7 a7be
00000120: 7521 6d3e 5ac7 9a3f 8807 af3e 15a2 013e
00000130: 2b1e 033b de62 e1bb 9f4a 463f 185a 7b3f
00000140: 2914 09be d05c dcbd e60f 153f 2bad a83f
00000150: b896 04be 61b4 48bc 33a0 c23e ae62 90bf
00000160: 0b23 dd3e 8966 e63e ce62 dcb9 85e9 73be
00000170: d7c6 d83d c5d7 eb3e 4e75 83bf a662 16bf
00000180: 29b9 d03e 9782 2a3f baa2 983d 3f06 efbe
00000190: f723 813e abd9 df3e c466 c03f 4410 0c40
000001a0: 2286 933e 8c9a 1c3f 1f02 d83e 5322 3f3c
000001b0: a40d 63bd fcbc 183d b8bc be3e 167e 3140
000001c0: af9f 9abe bab4 2e3e c828 963f f7e7 b8bf
000001d0: c063 353e 3365 853d e627 893d 1015 d23f
000001e0: a7b1 d6bb ced9 ae3d d9b7 c13f b59d 3a40
000001f0: be2a 9dbe caf2 99be ff81 993e 6f69 dfbf
00000200: 0075 93bd c276 f53e 3880 423e be8f 96be
00000210: b52a 34bf 348e 08bf 41b4 89bf 28eb 033f
00000220: 5d9c 35be b448 acbe fd95 bdbe 356c 0bc0
00000230: 0cdd c03e 8aa4 dc3e eb66 c53d 652b 8e3f
00000240: e2a3 65bc 00d5 f7bd c5fe 1f3f 84b4 a0bf
00000250: b55f d53e c690 653f c57f 733d 3901 9abe
00000260: 5b35 263d cea1 2b3c 9bb6 433f a267 0d40
00000270: b75a 3cbe 0743 f43d 3082 7b3f 3f1f 463f
00000280: 175a da3d dc6c 083f 8039 01be 1aec c43e
00000290: 2ead 6d3e c895 333f 3a32 19bf 973e 1dbf
000002a0: 637a f7bd 7eb9 823c 4adb b2bf 13f8 7d3f
000002b0: acea 06bf 1f2a 3e3e 1af8 8a3f 3dc1 ebbd
000002c0: f353 d53d 16b5 ab3e 6e4e 863f 4507 a5bf
000002d0: c056 83bd 0042 7dbe 2576 79be 3e4e 333f
000002e0: d0c6 70be 6719 c9bc ba2c 803e a18a 153d
000002f0: 3191 223f f19c 6840 fa15 1bbd 11ae 8c3e
00000300: bb67 95ba 5979 b03d 479b bc3f 9ca5 69bd
00000310: 0e99 d3be ba58 813e f843 3f3e f038 05be
00000320: bce1 ba3e 7845 2c3f 8d53 a23e 0a02 ce3f
00000330: 9052 a9be 942d 81be 4e3c c3be d10b af3e
00000340: afc9 1ebf b2d1 a1be 357c 83bf e4e6 bbbf
00000350: 6607 ac3e c0ea ae3e 62da 6ebf 91f5 813e
00000360: 160f b43e 1c7d 0d3f b50c 36bf 2b78 c93f
00000370: da4c 303d 42fb 883c 04b3 193f d542 a33e
00000380: 15e4 3dbf 9cd7 a8be 55a4 4fbe f74a af3e
00000390: 1eb1 743d a318 a53d 8868 693f 23d3 8c3f
000003a0: c073 01bf 078c 05bf a335 72bf 9a0e 8a3e
000003b0: d3d2 04be 3cb4 aa3e a4cd 2f3f 7ce0 9fbe
000003c0: 3344 723e b1fa 243f 28b9 9ebf 96cc 1bbe
000003d0: 18e4 05bf 7b84 d1be d199 b7bf 94cd eb3c
000003e0: 8d0a 003d 9f76 afbd dbaf c3bd 642e f53f
000003f0: 153e 84bf d630 dcbe e002 63bf 6a11 f7be

mlp_layer.0.bias f4 [128]
-0.26825482 0.11759673 -0.5221255 0.93404377 0.4685661 -0.4246939 0.35649765 1.3514782
0.3746102 -1.0117553 0.5060472 0.83046365 1.9362465 0.082036614 -1.1581262 -0.2626938
-0.8731023 -0.9024104 0.104789056 -0.8871228 -1.3490855 -0.58433884 -0.31885406 -0.20230485
1.3516532 -0.4707372 -1.7707916 0.5214795 -0.7013174 0.7101954 0.11949409 -0.3945146
0.14753675 0.74308324 -0.7695636 -0.6236111 -0.82743245 -0.64169115 -0.3962876 0.5766545
-0.018469173 0.041689992 -0.07328704 -0.25134736 -0.2922558 0.09151879 -0.5907837 -0.33225858
0.23329014 -0.053745568 -0.2529406 0.17899653 0.08081237 -0.39952204 0.46969593 -0.7625175
0.66103923 -0.8034076 0.28423315 -0.34624064 -0.078235075 0.070904136 0.49031478 -0.44092456
0.23847316 -0.38731447 -0.00058891485 0.16707867 -0.11526521 -2.239198 -0.8763989 -0.61114275
0.25838286 0.007434263 0.045384217 -0.19836885 -0.83139217 1.0283248 -0.3683166 -0.029649572
-0.034435153 -0.17269722 -0.2803902 1.3267518 0.656347 -0.15437913 -0.13731724 -0.4915334
0.9290694 0.8601767 0.40110978 0.7045789 -0.050020408 0.5145085 -0.3491537 -1.1845131
-0.47222918 0.4983228 1.1835567 0.41413227 1.5284888 -0.2686469 -0.10784473 0.03697539
1.0057147 0.49917033 -0.13968278 -0.57550925 -0.4805416 -0.28023204 0.5539833 -0.34602505
0.12859905 -0.16654499 -0.68598604 -0.48615706 -0.46197516 0.23747899 -0.14095785 0.6769449
0.824206 1.8460627 -0.2928209 -0.87850875 1.1214925 0.48320127 0.5446526 0.26458576
00000000: b258 89be 8ed6 f03d 04aa 05bf 7e1d 6f3f
00000010: e5e7 ef3e 7b71 d9be dc86 b63e 3dfd ac3f
00000020: e8cc bf3e 3381 81bf 4f8c 013f 4499 543f
00000030: edd6 f73f d002 a83d 7b3d 94bf cd7f 86be
00000040: a283 5fbf 5e04 67bf a59b d63d 7b1a 63bf
00000050: d5ae acbf 3b97 15bf d740 a3be 0129 4fbe
00000060: f902 ad3f 7704 f1be 4da9 e2bf ae7f 053f
00000070: 8a89 33bf 5ecf 353f 51b9 f43d d1fd c9be
00000080: e013 173e b43a 3e3f 1f02 45bf faa4 1fbf
00000090: 9dd2 53bf df45 24bf 35e6 cabe a19f 133f
000000a0: aa4c 97bc 20c3 2a3d 8417 96bd 9ab0 80be
000000b0: 8da2 95be 346e bb3d 9a3d 17bf cc1d aabe
000000c0: 9ce3 6e3e 5024 5cbd 6e81 81be de4a 373e
000000d0: f580 a53d 278e ccbe fc7b f03e 5934 43bf
000000e0: de39 293f 1fac 4dbf 0287 913e 7446 b1be
000000f0: b639 a0bd 3036 913d 8a0a fb3e ddc0 e1be
00000100: 4f32 743e 154e c6be 6861 1aba ac16 2b3e
00000110: 2b10 ecbd 054f 0fc0 ae5b 60bf da73 1cbf
00000120: c24a 843e 1e9b f33b cde4 393d 3421 4bbe
00000130: 1ed6 54bf 26a0 833f fe93 bcbe a9e3 f2bc
00000140: e00b 0dbd 8ad7 30be 4e8f 8fbe 01d3 a93f
00000150: 5b06 283f 9015 1ebe e49c 0cbe 44aa fbbe
00000160: 7ed7 6d3f 8a34 5c3f 435e cd3e 485f 343f
00000170: 33e2 4cbd d4b6 033f 46c4 b2be 209e 97bf
00000180: 06c8 f1be 2b24 ff3e c97e 973f 2509 d43e
00000190: 85a5 c33f 168c 89be b3dd dcbd 8273 173d
000001a0: 42bb 803f 4193 ff3e 0109 0fbe 9354 13bf
000001b0: 8c09 f6be 937a 8fbe d9d1 0d3f 322a b1be
000001c0: 78af 033e c58a 2abe c89c 2fbf 94e9 f8be
000001d0: 0288 ecbe b12d 733e 4157 10be 434c 2d3f
000001e0: 2aff 523f c84b ec3f 9fec 95be f3e5 60bf
000001f0: 118d 8f3f 2866 f73e 5a6e 0b3f c977 873e

mlp_layer.2.weight f4 [128, 128]
-0.38623667 -2.3208258 0.34545302 0.08656882 0.1545616 0.43814254 -0.06753302 -0.11928946
-0.09321029 -0.046858013 -0.23664926 -0.21912345 0.37889555 -0.066079766 -0.27028593 0.6191197
0.9517062 0.39152643 0.45682433 -1.1740352 -0.23715428 0.7488966 -0.14605616 0.9346059
-0.24063602 0.15274863 -1.5621375 0.19317253 0.6244511 0.30591992 0.14535257 -0.06990903
0.081243806 -0.46043506 1.0856584 0.234267 0.5436837 -3.8909492 0.17974114 -1.1485075
-0.9613864 -0.21569683 0.35065797 0.26238972 -0.4651939 0.2033984 0.025980344 -2.519316
-0.06574471 0.057048596 0.1374617 -1.3238018 -0.52523285 -0.09561707 0.17455825 -0.03492033
0.66072303 -0.5422117 -0.5220644 0.13203976 0.7197654 -0.38624543 0.29995877 -0.321472
0.56336284 0.04877094 -0.06489006 -1.6100628 0.050889406 -0.35692725 0.4101514 0.44506928
-0.19633587 0.9129526 0.2875298 1.4203979 -0.23642236 0.0904404 -0.8276826 -0.15631786
0.08179901 0.14638221 0.008350296 -0.25591338 -0.14102304 0.20423537 0.05877981 -0.035018276
-1.7056117 -0.74139076 -0.22777584 0.5181661 0.04204402 0.09758718 -0.7126156 0.34946895
0.234204 0.43219078 0.17203824 0.15403134 -0.8515884 0.32653356 -0.27479053 -0.21210933
1.3110768 0.19196492 -1.1052521 1.2809459 0.11186345 -0.81501746 -1.7808347 -0.037495397
0.0061270893 -0.021469 -0.08937905 -3.2482927 0.06686684 -0.72397107 -0.07325447 0.041826572
0.30094093 0.4731291 0.16945691 -0.19938634 0.2138426 0.8876791 0.1661405 -1.7194003
0.4144442 0.10507062 -0.033456285 -0.58524066 -0.17136146 -0.10598316 0.04866951 -0.41726512
-0.5838497 0.09718312 -0.094468266 -0.7002437 0.0047979914 0.04516854 0.03793522 -0.066079125
-0.07669425 -0.4243739 -0.070569694 -0.31636575 0.01956016 0.18164179 0.23526803 0.0420181
-0.03703759 -0.07089531 -0.07589914 -0.16011265 0.07588939 0.05715032 -0.45144638 0.24747379
-0.06867045 -0.14692594 -0.33838847 -0.2776578 -0.029251464 -0.020418132 -0.053310156 -0.4984382
-0.68751734 0.04498027 -0.13477138 0.057095207 -0.5348025 0.17010948 0.028989457 0.069834046
-0.37238315 0.004090585 -0.013672667 -0.39203453 0.06964391 0.07222037 -0.5975192 -0.5950684
0.0067171273 -0.80309 -0.16866942 0.0029968917 -0.00038175433 -0.80600506 0.20463347 -0.14270237
0.0235134 0.07780557 0.21735139 0.08053192 0.040207677 -0.23886974 0.095138766 -0.14495681
-0.42765525 0.52566326 -0.49113333 -0.3778738 -0.12227464 0.042957745 -0.03168941 -0.10580657
0.0035825223 -0.06931117 -0.104570374 -0.12641849 -1.0377911 -0.11164457 0.06706034 -0.29779452
-0.3521332 0.45650762 -0.50481385 -0.1829931 -0.18608008 0.255154 -0.08414187 0.12892586
0.063727364 0.15884557 -0.148853 0.1933455 -0.46934497 -0.0039098426 -0.016448103 -0.0988593
-0.22918198 -0.37061164 -0.99963456 -0.20769505 -0.20792097 -0.5175859 0.19693367 -0.08436255
0.056634896 -0.42012432 -0.9775599 0.10525861 -0.0452116 0.19102527 0.00016700476 0.002298645
-0.2764618 -0.06520464 0.026917037 -1.4965509 0.624732 -0.42804563 -0.41424227 -0.0050394963
00000000: d0c0 c5be 6988 14c0 38df b03e fe4a b13d
00000010: 6545 1e3e 3854 e03e c14e 8abd 084e f4bd
00000020: 09e5 bebd 30ee 3fbd 2f54 72be e661 60be
00000030: 99fe c13e d454 87bd eb62 8abe a17e 1e3f
00000040: 04a3 733f 2776 c83e e1e4 e93e c946 96bf
00000050: 92d8 72be b0b7 3f3f bf8f 15be 5542 6f3f
00000060: 4a69 76be 236a 1c3e 1ff4 c7bf 05cf 453e
00000070: 07dc 1f3f 89a1 9c3e 4ed7 143e 772c 8fbd
00000080: 2763 a63d 25be ebbe dbf6 8a3f b0e3 6f3e
00000090: db2e 0b3f 5005 79c0 100e 383e 4b02 93bf
000000a0: 6b1d 76bf a1df 5cbe 7189 b33e f257 863e
000000b0: e52d eebe ac47 503e bbd4 d43c 793c 21c0
000000c0: 2aa5 86bd caab 693d c3c2 0c3e 5672 a9bf
000000d0: a975 06bf e2d2 c3bd 66bf 323e 9f08 0fbd
000000e0: 2525 293f 63ce 0abf 03a6 05bf 6e35 073e
000000f0: 8c42 383f f6c1 c5be 3294 993e fa97 a4be
00000100: 8c38 103f 0ac4 473d 14e5 84bd 8a16 cebf
00000110: 6971 503d 2bbf b6be 5dff d13e 1fe0 e33e
00000120: 450c 49be 43b7 693f 1b37 933e 99cf b53f
00000130: b418 72be d138 b93d 02e3 53bf ca11 20be
00000140: 3d86 a73d 38e5 153e aecf 083c 1407 83be
00000150: 5868 10be 1423 513e 19c3 703d 536f 0fbd
00000160: 7c51 dabf c9cb 3dbf 123e 69be 89a6 043f
00000170: 5a36 2c3d cadb c73d fa6d 36bf 98ed b23e
00000180: 2cd3 6f3e 1c48 dd3e cb2a 303e 64ba 1d3e
00000190: b301 5abf 682f a73e 58b1 8cbe 3033 59be
000001a0: 5dd1 a73f 7492 443e e778 8dbf 09f6 a33f
000001b0: aa18 e53d fca4 50bf 64f2 e3bf c694 19bd
000001c0: c0c5 c83b c2df afbc 5d0c b7bd 07e4 4fc0
000001d0: 7bf1 883d 2b56 39bf 7106 96bd 5752 2b3d
000001e0: ee14 9a3e fa3d f23e 1d86 2d3e ef2b 4cbe
000001f0: 8ef9 5a3e f03e 633f bc20 2a3e 4f15 dcbf
00000200: 0832 d43e 442f d73d 7509 09bd 55d2 15bf
00000210: 6179 2fbe b30d d9bd ae59 473d c6a3 d5be
00000220: 2d77 15bf f207 c73d 9478 c1bd 2c43 33bf
00000230: 7838 9d3b a602 393d f661 1b3d 7e54 87bd
00000240: e011 9dbd 8947 d9be d886 90bd b1fa a1be
00000250: a13c a03c 4e00 3a3e 1aea 703e 2c1b 2c3d
00000260: bab4 17bd 8f31 91bd 0271 9bbd 92f4 23be
00000270: e66b 9b3d 7416 6a3d fb23 e7be c569 7d3e
00000280: 18a3 8cbd c173 16be 4141 adbe 2a29 8ebe
00000290: c4a0 efbc ed43 a7bc c05b 5abd 4b33 ffbe
000002a0: 2301 30bf 3b3d 383d 8201 0abe aadc 693d
000002b0: d1e8 08bf 2e31 2e3e 4c7b ed3c 2705 8f3d
000002c0: 01a9 bebe 500a 863b 5203 60bc c0b8 c8be
000002d0: 77a1 8e3d 46e8 933d 05f7 18bf 6756 18bf
000002e0: 591b dc3b 4e97 4dbf adb7 2cbe 8067 443b
000002f0: 3326 c8b9 5956 4ebf 708b 513e 9220 12be
00000300: 2d9f c03c 8758 9f3d 5d91 5e3e ebed a43d
00000310: ceb0 243d 459a 74be 1dd8 c23d 8f6f 14be
00000320: a1f5 dabe de91 063f d475 fbbe ad78 c1be
00000330: 206b fabd 76f4 2f3d c1cc 01bd 1db1 d8bd
00000340: c0c8 6a3b 04f3 8dbd fe28 d6bd d973 01be
00000350: 57d6 84bf e9a5 e4bd ee56 893d 8678 98be
00000360: ce4a b4be 5ebb e93e 7b3b 01bf 8b62 3bbe
00000370: c78b 3ebe 8ca3 823e 9352 acbd 2405 043e
00000380: 7e83 823d 6aa8 223e ec6c 18be 5dfc 453e
00000390: fc4d f0be 231e 80bb 2cbe 86bc bf76 cabd
000003a0: aeae 6abe cfc0 bdbe 0de8 7fbf 03ae 54be
000003b0: 3ce9 54be 8280 04bf fba8 493e 46c6 acbd
000003c0: fef9 673d 891a d7be 5e41 7abf d391 d73d
000003d0: cc2f 39bd 219c 433e 001e 2f39 dda4 163b
000003e0: 678c 8dbe 038a 85bd 1e81 dc3c fb8e bfbf
000003f0: 70ee 1f3f cc28 dbbe 9017 d4be 5c22 a5bb

mlp_layer.2.bias f4 [128]
0.6656388 0.24130161 -0.1480838 -0.03149334 -0.07927662 -0.06675091 0.0025552078 0.7970094
-0.123001024 -0.059404828 0.08072404 -0.13730069 0.029250016 0.29259363 0.22432889 -0.047024116
0.32822445 0.4164282 -0.27144298 0.06433465 0.21915102 -0.12066582 -0.0053712768 0.016749386
-0.14636211 -0.23131898 -0.10199022 -0.023279771 -0.09882422 -0.1057995 -0.2807176 -0.06957331
-0.024697356 -0.11734639 -0.12457579 -0.01825024 0.23925066 -0.0805679 -0.21196578 -0.018946722
-0.056904297 0.033902176 -0.0897637 -0.09466798 -0.12761338 -0.04172108 0.004059797 -0.13363227
-0.2688485 -0.033021312 -0.073935725 0.68982524 -0.026428852 -0.06355507 -0.03484537 -0.20004912
0.4268902 -0.047639508 0.020406323 -0.14368097 0.20331135 -0.018028947 -0.082428426 -0.029915925
-0.06462653 0.0014774398 -0.016805388 0.3345163 -0.14136131 -0.3550057 0.02920598 0.10353486
0.022686824 -0.13448338 -0.14237595 -0.07574921 0.76094306 -0.24341327 -0.02345354 -0.109496705
0.29408517 -0.010178762 -0.03581316 0.016407814 0.37398502 0.0029023588 -0.24946886 -0.05208596
0.023674915 0.65885186 -0.05675543 -0.019849444 0.102202594 0.0028520753 -0.1083185 0.03876515
0.2368182 0.5640518 -0.037178688 0.29591158 -0.06529803 -0.047116887 0.07161684 0.41791326
-0.05133609 -0.0051866653 -0.03789701 -0.28529358 0.13689944 -0.07924317 -0.02098042 -0.07852551
-0.118376374 -0.008067464 0.19868854 -0.06401881 -0.069736905 -0.33622935 -0.12408913 0.22659238
-0.06285395 -0.02902949 -0.12305418 0.749107 -0.1964904 0.05464671 0.046812885 -0.0032281252
00000000: 4e67 2a3f c517 773e 48a3 17be 29ff 00bd
00000010: c85b a2bd b3b4 88bd 4675 273b cf08 4c3f
00000020: f6e7 fbbd 7a52 73bd a552 a53d 8d98 0cbe
00000030: bb9d ef3c d5ce 953e 79b6 653e 5c9c 40bd
00000040: 090d a83e 1436 d53e 93fa 8abe e3c1 833d
00000050: 2069 603e a41f f7bd 8901 b0bb 0236 893c
00000060: f3df 15be e2de 6cbe 40e0 d0bd 38b5 bebc
00000070: 5a64 cabd 69ad d8bd 38ba 8fbe 747c 8ebd
00000080: 1c52 cabc 4e53 f0bd 9721 ffbd 8781 95bc
00000090: 20fe 743e c800 a5bd 8f0d 59be 2836 9bbc
000000a0: 7b14 69bd 02dd 0a3d 08d6 b7bd 49e1 c1bd
000000b0: 15ad 02be b9e3 2abd 0c08 853b e6d6 08be
000000c0: 83a6 89be 5b41 07bd 9d6b 97bd 6398 303f
000000d0: 5281 d8bc 2929 82bd 05ba 0ebd add9 4cbe
000000e0: 5a91 da3e a521 43bd 292b a73c 1b21 13be
000000f0: da30 503e 71b1 93bc 3cd0 a8bd 3e12 f5bc
00000100: ea5a 84bd a7a6 c13a 74ab 89bc b845 ab3e
00000110: 05c1 10be 4fc3 b5be 6141 ef3c 160a d43d
00000120: b8d9 b93c 03b6 09be 00cb 11be 6722 9bbd
00000130: 2acd 423f 5441 79be a321 c0bc cf3f e0bd
00000140: 5592 963e d2c4 26bc d2b0 12bd ae69 863c
00000150: f77a bf3e 8035 3e3b c474 7fbe 1658 55bd
00000160: e5f1 c13c 84aa 283f 6278 68bd 4d9b a2bc
00000170: 984f d13d e2e9 3a3b 17d6 ddbd 35c8 1e3d
00000180: 7880 723e b365 103f ae48 18bd b981 973e
00000190: f9ba 85bd a3fd 40bd daab 923d baf8 d53e
000001a0: cb45 52bd e7f4 a9bb e539 1bbd 0012 92be
000001b0: 5e2f 0c3e 3e4a a2bd 21df abbc fcd1 a0bd
000001c0: 506f f2bd 662d 04bc 0275 4b3e 4b1c 83bd
000001d0: 39d2 8ebd 4126 acbe 7122 febd d507 683e
000001e0: 92b9 80bd 41cf edbc d403 fcbd 7ac5 3f3f
000001f0: c834 49be 3bd5 5f3d debe 3f3d f48e 53bb

mu_layer.weight f4 [2, 128]
0.063321516 0.29855332 -0.05403798 -0.051254947 -0.24372378 -0.018108444 -0.024950903 0.1467955
0.011588953 0.011727805 -0.022981357 0.016574245 0.053522933 -0.15561011 0.40487066 -0.011560801
2.1003654 0.08683567 -0.07285666 0.17013745 -0.05628052 0.002984691 0.001400936 -0.01692428
-0.0042031826 0.075664654 0.036256883 -0.072524495 0.05903455 -0.047221076 0.036131695 -0.018573632
0.010117544 0.003763165 0.05952721 -0.16190228 0.051459357 0.01332826 -0.322641 0.011308357
-0.02065973 -0.00411483 -0.013071231 -0.087235294 -0.018278519 0.022629254 -0.012006759 0.011378919
-0.045236584 0.01346769 0.0138836065 0.27690598 -0.03970074 0.031313423 -0.06027504 0.07736078
0.33787996 0.01429272 0.0053656283 0.01786513 -0.37218365 0.105686635 0.006371194 0.053594045
-0.060234524 0.06702498 0.05199076 0.9290552 0.3135427 0.14172803 0.020185977 -0.051586863
-0.059534788 -0.042638022 -0.064628445 -0.04346618 -0.19377716 -0.3250389 0.08569716 0.01079748
-0.170333 -0.018882176 0.019836437 0.0063962955 -0.5449535 0.021913126 0.19156656 -0.023268575
-0.004573573 -0.51470184 0.0011820534 -0.50666046 0.72097546 0.067909196 -0.02788167 -0.050217386
-0.024159225 -0.93858445 0.008582381 -0.044660807 -0.03207656 0.02106523 -0.034234274 -1.0646033
-0.017496286 0.08723092 -0.007085679 0.80167806 0.37095737 -0.016436785 0.05377821 -0.023913536
-0.041274596 0.077871874 0.010157103 0.0026594044 -0.03068803 -0.22149111 -0.10525269 0.034397304
-0.14068317 0.0034295851 0.0025839997 -0.5977753 -0.02610277 0.026819209 -0.23699935 -0.057852812
-0.14213417 -0.29729822 0.025187384 -0.016229955 -0.49559468 0.025922008 0.040276177 -0.06888839
0.01198471 -0.044488646 -0.35928118 -0.052737463 0.006405976 -0.04362326 -0.8480456 0.061520603
-0.7240429 0.2573211 0.1668296 0.14841549 0.11665054 -0.049973566 -0.014958908 -0.023245871
0.017723374 -0.2686398 0.08113663 0.0020407354 -0.007915645 0.010294347 0.07468884 0.017937722
0.036495227 0.03599793 0.058071263 -0.49340197 0.22258249 -0.004524961 -0.19156218 0.043992337
0.051488668 -0.0416225 -0.013822837 -0.051251013 -0.058764152 0.062111713 0.035891257 0.0733058
0.11700728 -0.003145717 0.05743033 0.009384154 -0.039956722 0.055535458 -0.015372119 0.29587802
-0.21183147 -0.042866524 -0.03205007 0.050948057 -0.27136484 -0.062655605 0.038763817 -0.01781635
0.05007048 0.025222788 -0.0056191 -0.31645527 0.7507287 0.12056181 0.11017667 0.36528707
-0.37975016 -0.013566232 -0.042169128 -0.008059209 -0.16092932 -0.16298485 0.08403626 -0.09408064
-0.1598176 0.10262533 0.090298995 0.034437772 -0.086437315 0.06868305 0.7009668 0.09244848
0.04694742 -0.1576347 0.022156633 -0.22547576 0.09588094 -0.09073415 0.008376621 -0.0058173435
-0.17817844 0.29787183 0.095099814 0.95685506 0.052530617 0.0384295 -0.57889307 0.48566857
0.0013616278 -0.16782203 0.9049448 0.9816221 -0.2846733 -0.06359633 0.018219557 -0.036063552
0.044760566 -0.5793293 0.32877752 -0.023439446 0.050506312 -0.009338038 0.00033239773 -0.6387966
0.9045953 0.01969241 0.0038155771 -0.16006637 0.027301138 0.04405919 -0.04947709 -0.017615974
00000000: b6ae 813d fbdb 983e ee56 5dbd b5f0 51bd
00000010: ba92 79be 2958 94bc d665 ccbc 8f51 163e
00000020: 98df 3d3c fb25 403c 6643 bcbc b6c6 873c
00000030: dd3a 5b3d 4258 1fbe 354b cf3e 8469 3dbc
00000040: 636c 0640 e6d6 b13d df35 95bd 8338 2e3e
00000050: 6786 66bd ce9a 433b 9d9f b73a caa4 8abc
00000060: daba 89bb 12f6 9a3d 1982 143d b987 94bd
00000070: 36ce 713d e36a 41bd d4fe 133d bb27 98bc
00000080: 0ec4 253c 6f9f 763b ced2 733d b6c9 25be
00000090: 0cc7 523d c65e 5a3c 3331 a5be b046 393c
000000a0: 983e a9bc b2d5 86bb b728 56bc 6ba8 b2bd
000000b0: d5bc 95bc fc60 b93c ffb7 44bc a56e 3a3c
000000c0: ff49 39bd 96a7 5c3c 1178 633c 9fc6 8d3e
000000d0: 3e9d 22bd 8142 003d f6e2 76bd 546f 9e3d
000000e0: 9afe ac3e 032c 6a3c 27d2 af3b e559 923c
000000f0: db8e bebe 3c72 d83d 73c5 d03b 6e85 5b3d
00000100: 7ab8 76bd 6544 893d 43f4 543d 90d6 6d3f
00000110: ab88 a03e 2721 113e 105d a53c bf4c 53bd
00000120: c0da 73bd 35a5 2ebd eb5b 84bd 9809 32bd
00000130: 856d 46be 806b a6be fe81 af3d eae7 303c
00000140: c66b 2ebe cbae 9abc 0680 a23c 0498 d13b
00000150: 1382 0bbf 2883 b33c 062a 443e bd9d bebc
00000160: e9dd 95bb 80c3 03bf 21ef 9a3a 80b4 01bf
00000170: d991 383f fa13 8b3d 1a68 e4bc bfb0 4dbd
00000180: 91e9 c5bc 1247 70bf 1d9d 0c3c 40ee 36bd
00000190: b662 03bd fd90 ac3c 3d39 0cbd ec44 88bf
000001a0: 5f54 8fbc 20a6 b23d fc2e e8bb c63a 4d3f
000001b0: 20ee bd3e 70a6 86bc 8a46 5c3d 52e6 c3bc
000001c0: 8d0f 29bd 4a7b 9f3d fa69 263c 6749 2e3b
000001d0: 7765 fbbc 91ce 62be b98e d7bd 30e4 0c3d
000001e0: 400f 10be e4c2 603b 5258 293b cd07 19bf
000001f0: 7ad5 d5bc f5b3 db3c f5af 72be 12f7 6cbd
00000200: 9f8b 11be 7937 98be c655 ce3c aff4 84bc
00000210: 96be fdbe 645a d43c a2f8 243d 5b15 8dbd
00000220: 845b 443c ba39 36bd b4f3 b7be 3d03 58bd
00000230: 39e9 d13b 4eae 32bd 8419 59bf 07fd 7b3d
00000240: e05a 39bf 97bf 833e 61d5 2a3e 3bfa 173e
00000250: 7ae6 ee3d 15b1 4cbd 3516 75bc 206e bebc
00000260: 9c30 913c 288b 89be f62a a63d dcbd 053b
00000270: 9fb0 01bc 9fa9 283c 76f6 983d 21f2 923c
00000280: 057c 153d 9172 133d 22dc 6d3d 2f9f fcbe
00000290: aaec 633e 2046 94bb e028 44be 4f31 343d
000002a0: c8e5 523d 5b7c 2abd 2e79 62bc 95ec 51bd
000002b0: aeb2 70bd da68 7e3d b602 133d 5a21 963d
000002c0: 83a1 ef3d 6028 4ebb 113c 6b3d ffbf 193c
000002d0: a9a9 23bd 2679 633d 57db 7bbc 537d 973e
000002e0: 59ea 58be cf94 2fbd ef46 03bd e9ae 503d
000002f0: 55f0 8abe 9551 80bd cfc6 1e3d 98f3 91bc
00000300: b416 4d3d 05a0 ce3c 6d20 b8bb 6d06 a2be
00000310: c22f 403f 1ce9 f63d 4ea4 e13d e806 bb3e
00000320: 9d6e c2be e744 5ebc 89b9 2cbd c60a 04bc
00000330: a8ca 24be 80e5 26be 341b ac3d 5aad c0bd
00000340: 3aa7 23be 3b2d d23d aeee b83d 9f0e 0d3d
00000350: 0c06 b1bd b3a9 8c3d 8f72 333f a155 bd3d
00000360: f04b 403d fe6a 21be d481 b53c 1ee3 66be
00000370: 3a5d c43d d3d2 b9bd 183e 093c 6a9f bebb
00000380: 6974 36be a882 983e b1c3 c23d 74f4 743f
00000390: 582a 573d 4068 1d3d 5632 14bf 8da9 f83e
000003a0: a678 b23a 8ad9 2bbe 76aa 673f 964b 7b3f
000003b0: b3c0 91be cb3e 82bd 2e41 953c 60b7 13bd
000003c0: db56 373d ed4e 14bf 8755 a83e 1504 c0bc
000003d0: b5df 4e3d 92fe 18bc ab45 ae39 2d88 23bf
000003e0: 8f93 673f fa51 a13c c30e 7a3b 70e8 23be
000003f0: a3a6 df3c 6977 343d 7da8 4abd 604f 90bc

mu_layer.bias f4 [2]
0.46592134 -1.1123865
00000000: 3e8d ee3e ae62 8ebf

log_std_layer.weight f4 [2, 128]
0.0028987338 -0.090462536 -0.04711242 0.00898451 0.18454497 0.03303762 -0.06221955 -0.03897608
0.004599369 0.0010672743 0.016894719 0.032012958 0.03171262 -0.0005929992 -0.14491649 -0.05932169
0.10311588 -0.026494622 -0.019542873 0.00054607657 -0.0036352607 0.09994827 0.07643906 -0.06404419
0.0474421 0.0048899762 -0.0018614952 -0.010200586 0.044032462 0.0011515559 0.13867527 -0.023986947
-0.011155436 0.09378829 0.061564624 0.046904266 -0.045768123 0.017857298 0.09410452 0.041964177
-0.017524403 0.061302543 0.030778518 -0.011469727 0.0723019 0.0527943 0.0036479863 0.0064008147
0.27546427 -0.02699388 0.03603837 0.011824443 0.09250091 -0.00049264805 0.43497112 0.09221368
-0.055911146 0.054474 0.0043284534 0.12711407 -0.012924437 -0.04311047 0.052599467 0.029581673
-0.06804426 0.021589842 0.01100503 0.19770972 0.32560837 0.15603845 -0.07821347 0.0043800836
-0.040073 -0.008126743 0.037000038 0.001293792 -0.058938686 0.08339697 -0.19512068 0.027783338
-0.0017987872 0.054425824 0.08775376 -0.023325989 -0.014119656 0.045999758 0.053140182 -0.011937998
0.14218278 0.0049976357 0.019542651 0.019965207 0.22244446 -0.035609085 -0.032088485 -0.041076235
-0.023043623 0.230011 -0.03234122 -0.026941217 0.0768849 0.051033005 0.121898934 -0.12740666
-0.01766523 -0.025794212 0.15942916 -0.14454019 -0.038951315 -0.070161656 0.07902183 -0.028282324
-0.0006196708 0.2474696 0.017276928 0.02668092 -0.102949575 -0.009091986 -0.06098416 0.043520376
0.055498544 0.05015127 0.044384237 -0.0032572164 0.023555838 0.080522746 -0.007998032 -0.0035035901
0.0028458408 0.043060333 0.061455365 0.01656807 0.19700883 0.0046765567 0.014617419 -0.00044595933
0.056600176 0.00036819195 -0.11625267 0.06611761 -0.009649185 0.002927973 -0.07934945 -0.08946732
0.37349272 -0.028045509 0.0016620136 -0.013461893 -0.00497708 0.06586804 0.04488158 -0.057681046
-0.021115027 0.13126302 0.08317483 0.051447857 0.042305715 -0.03595032 0.15209363 -0.08689984
0.0049810135 0.08993733 0.015749535 0.38127592 -0.04207362 -0.073453575 -0.029442962 0.10392175
0.07292882 -0.041864004 0.066697195 -0.07234884 -0.03569288 -0.040619418 0.12816766 0.045065984
-0.03637947 0.03867702 0.013872963 -0.016352726 -0.040032838 0.0701019 0.1496505 0.13809459
0.018553125 0.0127332965 0.043518588 -0.08118278 0.0048839753 -0.023153884 0.0008886692 0.06812881
-0.005506725 0.031249449 0.07934891 0.14255053 0.60518855 -0.045714527 0.035910744 -0.059697036
0.10050446 0.05576739 -0.014125078 -0.009237646 -0.0062426743 0.05951179 -0.07074154 0.06301429
0.022098264 -0.032499272 0.057065304 0.09985826 0.053266592 0.043466683 0.1405543 -0.010582722
0.07608554 0.0006015222 -0.012363461 0.05328638 0.12924114 -0.022960499 0.033009905 -0.0979841
-0.013808117 -0.07284172 0.022294166 -0.2858253 0.013408802 0.07579695 0.26721585 0.03831387
0.015834827 0.009482821 -0.056123026 -0.12143364 -0.03323561 0.015845804 -0.001492154 -0.09053768
-0.011782711 0.2230311 -0.06350726 -0.028004764 0.07245523 0.046178553 0.07879193 -0.046447612
0.24131136 -0.0013938698 0.057740588 -0.00010441875 -0.04811144 0.06770983 0.04757259 0.086998396
00000000: aff8 3d3b 6c44 b9bd f4f8 40bd c433 133c
00000010: 5bf9 3c3e 7552 073d edd9 7ebd 62a5 1fbd
00000020: 4eb6 963b c8e3 8b3a cb66 8a3c 0520 033d
00000030: 18e5 013d 8173 1bba fd64 14be 4dfb 72bd
00000040: 6b2e d33d 400b d9bc 6018 a0bc 9426 0f3a
00000050: 8e3d 6ebb aeb1 cc3d 158c 9c3d 9a29 83bd
00000060: a652 423d 183c a03b 6afd f3ba 5c20 27bc
00000070: 625b 343d ceef 963a e400 0e3e 4680 c4bc
00000080: 4ac5 36bc 1314 c03d 302b 7c3d b01e 403d
00000090: 5b77 3bbd 7849 923c dfb9 c03d a1e2 2b3d
000000a0: 568f 8fbc 6018 7b3d 3b23 fc3c 86eb 3bbc
000000b0: 0513 943d d63e 583d 0e13 6f3b edbd d13b
000000c0: a709 8d3e 4522 ddbc f89c 133d 4fbb 413c
000000d0: 1e71 bd3d 0d25 01ba 89b4 de3e 87da bc3d
000000e0: 1603 65bd 2120 5f3d b3d5 8d3b 312a 023e
000000f0: 05c1 53bc 9b94 30bd 8a72 573d 4455 f23c
00000100: ca5a 8bbd 2edd b03c 714e 343c 6b74 4a3e
00000110: 24b6 a63e 8bc8 1f3e 622e a0bd ce86 8f3b
00000120: 9623 24bd 0826 05bc 5a8d 173d 7594 a93a
00000130: b169 71bd 08cc aa3d b7cd 47be e299 e33c
00000140: 48c5 ebba 9ded 5e3d 3eb8 b33d 2516 bfbc
00000150: 2156 67bc 3e6a 3c3d 85a9 593d 9897 43bc
00000160: 5d98 113e 35c3 a33b e917 a03c 138e a33c
00000170: 7bc8 633e d5da 11bd 376f 03bd 8e3f 28bd
00000180: fbc5 bcbc 0188 6b3e 3a78 04bd d4b3 dcbc
00000190: d575 9d3d fc07 513d 26a6 f93d e476 02be
000001a0: acb6 90bc 624e d3bc 6641 233e 5802 14be
000001b0: 6a8b 1fbd eab0 8fbd 32d6 a13d 55b0 e7bc
000001c0: 6771 22ba ac68 7d3e 5888 8d3c f291 da3c
000001d0: 3ad7 d2bd 8ef6 14bc 87ca 79bd 6c42 323d
000001e0: 7152 633d 6b6b 4d3d 3fcc 353d 0677 55bb
000001f0: 2cf8 c03c 1ce9 a43d 2d0a 03bc 7d9c 65bb
00000200: 4981 3a3b 0860 303d 9fb8 7b3d c3b9 873c
00000210: afbc 493e cd3d 993b e67d 6f3c a6cf e9b9
00000220: 96d5 673d e309 c139 e115 eebd ab68 873d
00000230: 9e17 1ebc 3ce3 3f3b f781 a2bd a43a b7bd
00000240: 703a bf3e b2bf e5bc ecd7 d93a 468f 5cbc
00000250: c616 a3bb d3e5 863d bfd5 373d f642 6cbd
00000260: 6cf9 acbc d069 063e 9157 aa3d fdba 523d
00000270: c248 2d3d a540 13bd 6fbe 1b3e 8bf8 b1bd
00000280: c537 a33b 1031 b83d 2b05 813c 9936 c33e
00000290: 6355 2cbd d46e 96bd 5e32 f1bc edd4 d43d
000002a0: b55b 953d 9779 2bbd 8a98 883d a12b 94bd
000002b0: b332 12bd 8c60 26bd 623e 033e 1c97 383d
000002c0: a402 15bd cc6b 1e3d 6d4b 633c 27f6 85bc
000002d0: 79f9 23bd 9691 8f3d fb3d 193e ab68 0d3e
000002e0: b9fc 973c 519f 503c 8c40 323d 2843 a6bd
000002f0: c109 a03b 37ad bdbc 95f5 683a 1e87 8b3d
00000300: c271 b4bb d8fe ff3c ae81 a23d c4f8 113e
00000310: a3ed 1a3f 283f 3bbd 2517 133d e184 74bd
00000320: 48d5 cd3d 596c 643d df6c 67bc 7f59 17bc
00000330: 598f ccbb a2c2 733d f1e0 90bd a30d 813d
00000340: 6b07 b53c f51d 05bd 4fbd 693d 7d82 cc3d
00000350: 122e 5a3d 1f0a 323d 77ed 0f3e 2763 2dbc
00000360: bcd2 9b3d 79af 1d3a 1d90 4abc d242 5a3d
00000370: ca57 043e a817 bcbc 6535 073d e3ab c8bd
00000380: 713b 62bc 0a2e 95bd 41a2 b63c b257 92be
00000390: 98b0 5b3c 6e3b 9b3d 84d0 883e 01ef 1c3d
000003a0: 0ab8 813c d65d 1b3c 42e1 65bd 33b2 f8bd
000003b0: 1022 08bd 0fcf 813c 6194 c3ba d26b b9bd
000003c0: 460c 41bc 4462 643e 1810 82bd 3f6a e5bc
000003d0: 6863 943d b925 3d3d aa5d a13d da3f 3ebd
000003e0: 531a 773e 82b2 b6ba 6581 6c3d 64fb dab8
000003f0: 8010 45bd 74ab 8a3d 7adb 423d 372c b23d

log_std_layer.bias f4 [2]
-0.34191892 -0.5880622
00000000: ff0f afbe 3f8b 16bf
